checkpoint.pth (torch_old, 28333 bytes, 6 tensors)

fc1.weight f4 [64, 37]
0.2798607 -0.1287051 -0.27679422 -0.35407376 -0.8748419 0.0068991585 0.0056749177 0.21604532
-0.06919342 0.089461625 0.055048633 -0.10862124 -0.14193125 -0.15664257 -0.29654393 -0.08526041
0.115796655 0.2955298 -0.23907764 0.08625562 -0.08097445 0.2620408 0.15036044 0.023309844
0.110194966 -0.09611544 0.07556153 0.025887093 -0.032288924 0.15103449 -0.053897582 0.06050614
-0.18445802 0.18690205 -0.281802 -0.011125081 -0.021998465 0.21564676 0.04850647 0.008886663
-0.09099584 -0.2349438 -0.13962838 -0.048106752 -0.13666561 -0.2030184 0.20744772 0.081264995
-0.08077505 0.021526815 -0.03680397 -0.123951264 0.12685606 -0.022427833 -0.021694798 -0.19594815
-0.07987862 0.028081078 -0.1357875 -0.18163635 -0.2641335 -0.3311551 -0.04669553 -0.005840522
-0.092212714 -0.10164883 0.15980835 0.01876019 0.10216366 0.11836336 -0.1871705 0.16636111
0.23247108 0.013654501 -0.007479089 0.1802043 0.1667678 0.18406858 0.12643762 -0.12199896
0.17791735 0.25466594 0.09510768 -0.059505183 0.3027468 -0.14184576 -0.08756143 -0.11888529
-0.7790087 0.034040764 0.12429905 0.1283261 0.06379774 0.06107634 0.057235103 0.06798805
0.07511345 -0.19619596 -0.28401232 -0.09740653 0.019427707 0.22655994 0.25611052 -0.013803727
-0.028728344 0.019718409 -0.08756922 -0.36141345 -0.25292096 0.017026018 0.0012665511 0.1273381
-0.6309634 0.16747703 -0.03323049 -0.34330192 -0.50384474 0.05075505 0.14602625 -0.124466114
0.18839292 -0.27192762 -0.040643528 -0.028731288 -0.031112941 -0.05047921 -0.21276805 -0.0914318
0.0018069462 -0.3708702 -0.3477439 0.13128592 -0.78522515 -0.17585716 0.14312854 -0.10692119
-0.043711215 0.11834364 -0.13149922 -0.31120995 0.13307332 -0.027713483 -0.42602935 0.11457195
-0.10233027 -0.33255467 0.1549696 0.0021478948 -0.11137838 -0.09578106 -0.13343926 -0.15280357
-0.06853271 0.17479636 0.10005428 -0.14608486 -0.23359564 -0.49022385 0.0067630685 -0.0466229
-0.019938573 -0.124738164 -0.21381775 -0.08714812 -0.00773953 -0.05079173 -0.028450338 0.2976598
-0.018827746 -0.3117808 0.012267927 0.007565896 0.12215237 0.037799228 0.07119651 0.037974223
-0.088422775 -0.24552 0.16334745 -0.26842234 0.016331958 -0.004942048 0.34671068 0.0062585482
0.014909468 -0.013996793 -0.0045138258 0.055635694 0.07755625 0.09946896 0.4584449 -0.52248824
-0.52827233 -0.36778507 -1.7028873 -0.06422461 -0.023763483 0.047230225 0.053580713 0.088686585
0.05741036 0.0629946 0.027323445 0.055666503 -0.051278047 0.1415209 0.10692873 0.120853685
0.15578729 0.07128398 0.1128924 0.04368919 0.022837168 0.023473052 -0.09524374 0.13134596
0.0518844 0.06201074 0.041439127 -0.07002331 -0.0065732566 0.0064828824 0.005374875 0.102506444
-0.22714907 -0.09594874 -0.2201614 -0.38602135 -0.06959715 0.10026264 -0.054894872 0.1850644
-0.09912332 0.17007363 0.10306415 -0.12137534 0.2151549 -0.33172116 -0.06563837 0.009332417
0.06382518 0.04977283 0.07352076 -0.06862545 -0.038513977 -0.32148919 0.20885547 -0.41089347
-0.12985978 0.0815404 -0.011809742 0.08633971 -0.00097294874 -0.10511919 0.04319957 -0.31842053
00000000: e749 8f3e 45cb 03be f9b7 8dbe 2849 b5be
00000010: a4f5 5fbf 5612 e23b a9f4 b93b fc3a 5d3e
00000020: 48b5 8dbd a837 b73d ad7a 613d d074 debd
00000030: 6d56 11be e966 20be 9bd4 97be 039d aebd
00000040: cc26 ed3d af4f 973e c5d0 74be c9a6 b03d
00000050: efd5 a5bd 362a 863e 16f8 193e 49f4 be3c
00000060: e6ad e13d 2cd8 c4bd 01c0 9a3d 2b11 d43c
00000070: 6441 04bd c9a8 1a3e b6c3 5cbd 49d5 773d
00000080: 90e2 3cbe 4063 3f3e 5a48 90be f945 36bc
00000090: 2036 b4bc 81d2 5c3e b8ae 463d 5e99 113c
000000a0: 075c babd 1c95 70be befa 0ebe 960b 45bd
000000b0: 12f2 0bbe 0ee4 4fbe 2d6d 543e 436e a63d
000000c0: 646d a5bd 0159 b03c c2bf 16bd 29da fdbd
000000d0: 8ee6 013e 93ba b7bc 4ab9 b1bc a2a6 48be
000000e0: 6797 a3bd 4a0a e63c e10b 0bbe e1fe 39be
000000f0: 823c 87be 298d a9be d043 3fbd d961 bfbb
00000100: 05da bcbd 432d d0bd cda4 233e f8ae 993c
00000110: 2e3b d13d 7d68 f23d a0a9 3fbe 915a 2a3e
00000120: e60c 6e3e 21b7 5f3c 2513 f5bb 7a87 383e
00000130: 2ec5 2a3e 797c 3c3e dd78 013e 97da f9bd
00000140: f72f 363e 9363 823e d1c7 c23d b5bb 73bd
00000150: a101 9b3e 0440 11be 6853 b3bd 227a f3bd
00000160: 1d6d 47bf 546e 0b3d 8090 fe3d eb67 033e
00000170: 64a8 823d 2f2b 7a3d 5b6f 6a3d 523d 8b3d
00000180: 15d5 993d 98e7 48be 106a 91be 137d c7bd
00000190: db26 9f3c 54ff 673e eb20 833e 0729 62bc
000001a0: b457 ebbc 8088 a13c 7e57 b3bd 2f0b b9be
000001b0: db7e 81be 267a 8b3c 6702 a63a eb64 023e
000001c0: d186 21bf 197f 2b3e b21c 08bd 45c5 afbe
000001d0: f8fb 00bf 87e4 4f3d e887 153e 17e8 febd
000001e0: 13ea 403e 193a 8bbe d479 26bd e15d ebbc
000001f0: 91e0 febc 4ac3 4ebd dedf 59be 9840 bbbd
00000200: 0ed7 ec3a b3e2 bdbe 7d0b b2be d16f 063e
00000210: 8404 49bf e613 34be 4a90 123e 7ff9 dabd
00000220: 880a 33bd 265e f23d bba7 06be e956 9fbe
00000230: 5f44 083e 6307 e3bc 8520 dabe b3a4 ea3d
00000240: 8892 d1bd 9b44 aabe 5ab0 1e3e b2c3 0c3b
00000250: 591a e4bd dc28 c4bd 4da4 08be 8a78 1cbe
00000260: e15a 8cbd d1fd 323e 42e9 cc3d 4597 15be
00000270: b233 6fbe 9ffe fabe bb9c dd3b a7f7 3ebd
00000280: 3856 a3bc b976 ffbd 0af3 5abe b77a b2bd
00000290: e29b fdbb fd0a 50bd af10 e9bc de66 983e
000002a0: a53c 9abc bca1 9fbe 6aff 483c 56eb f73b
000002b0: 062b fa3d 5dd3 1a3d 7acf 913d dc8a 1b3d
000002c0: 0017 b5bd 9869 7bbe 8e44 273e a76e 89be
000002d0: 99ca 853c e7f0 a1bb 1084 b13e 8214 cd3b
000002e0: d746 743c ce52 65bc b7e8 93bb 41e2 633d
000002f0: d0d5 9e3d 62b6 cb3d 4ab9 ea3e cac1 05bf
00000300: db3c 07bf 534e bcbe 36f8 d9bf 3188 83bd
00000310: a3ab c2bc 7b74 413d 7377 5b3d 50a1 b53d
00000320: 2027 6b3d 5003 813d 6bd5 df3c 8f02 643d
00000330: ee08 52bd dbea 103e 73fd da3d 2382 f73d
00000340: b486 1f3e 56fd 913d 2134 e73d 70f3 323d
00000350: 0315 bb3c 8f4a c03c 260f c3bd 8e7f 063e
00000360: bd84 543d f9fe 7d3d 13bc 293d 6268 8fbd
00000370: 7964 d7bb 5c6e d43b b81f b03b e6ee d13d
00000380: c499 68be c680 c4bd fd71 61be 97a4 c5be
00000390: f388 8ebd 8056 cd3d 72d9 60bd 8681 3d3e
000003a0: 2b01 cbbd c827 2e3e 4c13 d33d a293 f8bd
000003b0: 9151 5c3e 5bd7 a9be 696d 86bd fee6 183c
000003c0: c7b6 823d 98de 4b3d 0d92 963d 808b 8cbd
000003d0: d5c0 1dbd 3b9a a4be 35de 553e a160 d2be
000003e0: f6f9 04be a7fe a63d a67d 41bc e0d2 b03d
000003f0: 7c0d 7fba bb48 d7bd 08f2 303d 0408 a3be

fc1.bias f4 [64]
0.14378443 -0.08283082 -0.035591356 -0.099593066 0.1600736 0.04289909 -0.16785629 0.036436368
0.023024712 -0.23862159 0.15165177 0.16506042 0.13231575 0.09474494 -0.09122197 -0.14881499
0.12789044 0.093084 0.0022928976 -0.22703725 -0.1052093 -0.013586045 0.025062244 -0.080587804
-0.111747615 0.10419257 -0.002219852 -0.23484012 0.16002007 0.21528447 -0.089738615 -0.24707785
0.25304702 0.033551704 -0.17075866 0.063671626 -0.009255636 0.016156262 -0.08141805 -0.10429681
-0.11890338 -0.075903505 -0.10566808 0.278206 0.075040676 -0.062562436 0.039856028 -0.20868485
-0.07361433 0.18201497 -0.14219579 0.025342733 -0.103544235 -0.1527476 -0.19019274 0.024648178
0.106434695 0.022861455 -0.18294945 -0.11308896 -0.05852734 0.0033686906 0.062264174 0.0037432723
00000000: 3a3c 133e 34a3 a9bd 3ec8 11bd 73f7 cbbd
00000010: 55ea 233e f5b6 2f3d 85e2 2bbe 4d3e 153d
00000020: 529e bc3c 3859 74be 9a4a 1b3e 9905 293e
00000030: c87d 073e a309 c23d 96d2 babd f562 18be
00000040: b6f5 023e d3a2 be3d 7044 163b 747c 68be
00000050: f977 d7bd 0198 5ebc 564f cd3c 380b a5bd
00000060: efdb e4bd ea62 d53d f07a 11bb ee79 70be
00000070: 4ddc 233e 8873 5c3e e1c8 b7bd fa01 7dbe
00000080: 618f 813e 836d 093d 5cdb 2ebe 4566 823d
00000090: f3a4 17bc 235a 843c 82be a6bd 9199 d5bd
000000a0: 9e83 f3bd 4c73 9bbd 8268 d8bd 0471 8e3e
000000b0: edae 993d bc20 80bd 1340 233d 7bb1 55be
000000c0: 1cc3 96bd 2262 3a3e c69b 11be 909b cf3c
000000d0: 000f d4bd de69 1cbe e3c1 42be faea c93c
000000e0: 6ffa d93d f247 bb3c 1a57 3bbe 2f9b e7bd
000000f0: 5dba 6fbd 40c5 5c3b b808 7f3d b051 753b

fc2.weight f4 [64, 64]
-0.042719454 0.118635885 0.2074308 0.14599079 -0.027177384 0.066343136 -0.108878866 0.11168338
-0.16757168 -0.12395835 -0.18186472 -0.076128885 -0.027841762 0.019348081 -0.25941202 0.009599145
-0.29521564 -0.21298803 -0.15181996 -0.4191921 0.16098449 -0.13279702 -0.043392684 -0.13499697
-0.14133027 0.056266043 0.19587621 -0.23760572 -0.031643152 -0.053252604 0.5164361 -0.07383968
0.19082688 0.15809874 -0.036251597 -0.17569831 -0.2307145 0.290357 0.19730984 -0.21916254
0.0069139632 -0.024079489 0.14651452 0.012970673 -0.003370077 0.02695469 -0.022398898 -0.02337741
-0.06055856 0.22869484 -0.023237122 -0.18046765 -0.02172603 -0.1571536 -0.10756842 0.012315497
0.020040315 -0.06703414 -0.50964814 -0.059074786 0.19896446 0.0761217 -0.073992215 0.00514236
0.003988184 0.015967537 -0.15050443 0.02991744 0.080552615 0.29091674 -0.19486253 0.18388377
-0.026247064 -0.10361333 -0.10378231 0.25829288 -0.48499563 -0.10367398 -0.029002361 0.038357764
0.07882335 0.1615657 -0.064854056 -0.0344724 0.13421881 -0.07149189 0.36540192 -0.18844326
0.0007143397 0.01306062 0.024378465 0.07402169 0.27877754 -0.16238734 0.013914532 -0.055803746
-0.0981932 -0.14053254 -0.095496364 0.017562723 -0.05760556 -0.24505818 -0.06269785 -0.14284089
-0.19704151 0.05773429 0.18735911 -0.0802682 -0.18979892 -0.047790214 -0.110803954 0.13523647
0.022554133 -0.3218527 -0.35887125 0.12956528 0.019219536 -0.1420236 0.00039921748 -0.09929861
-0.33032176 0.03697847 0.16677016 3.7779813e-05 -0.10364937 -0.23010445 -0.17572157 -0.14827088
-0.14991988 -0.10732556 -0.059348445 -0.17920546 0.07051849 0.18483278 -0.16234069 0.01708283
0.08300836 -0.10907638 -0.05235306 -0.029450677 0.41366526 0.18934174 -0.115723096 0.084949635
-0.1182266 0.19604081 -0.036402438 0.024966607 -0.10219511 -0.0013587638 0.040588923 -0.09302237
0.0024212648 -0.14853977 0.036706593 0.05235902 0.14614439 0.16949633 0.0092787575 -0.10687469
-0.063918054 -0.060009994 -0.1340403 0.110334285 0.114312366 0.208553 -0.019156214 0.011290594
0.1150817 -0.19716 -0.115329556 -0.10569318 -0.052988146 0.004614328 -9.9745586e-05 0.08172316
-0.05411154 -0.40207055 0.13515337 0.08014859 -0.08560456 -0.05130245 -0.39310953 -0.0119306855
0.16335814 -0.04516309 -0.1770419 -0.015675759 -0.015183472 0.15844078 -0.015161971 0.10774045
0.08148608 -0.043557696 0.2012562 0.024716754 0.040502362 -0.030479616 -0.09513803 -0.1973134
-0.10396687 -0.19176786 0.6189828 -0.100396074 -0.08486292 -0.21307446 -0.08785942 -0.18089399
-0.0223259 -0.046155266 0.001647147 -0.042915404 0.13453916 0.020927617 0.078137726 0.29296315
-0.17382796 0.064725585 0.009220234 -0.2279991 0.045917585 -0.40154213 0.36359492 0.1804515
-0.31022975 -0.025040045 0.28523156 0.15824614 -0.49605948 -0.14893045 0.24130443 -0.33308375
0.040381216 0.059379734 -0.21456517 0.114050105 -0.064266495 0.008755985 -0.3313656 -0.24197248
-0.1500488 -0.042179644 -0.5757615 0.007674574 0.30251965 0.34811375 0.034528613 0.20422152
-0.20498309 0.029145213 0.12013787 0.18359454 -0.27898252 -0.20011106 -0.12059766 -0.22219743
00000000: 98fa 2ebd 5ff7 f23d bd68 543e 9c7e 153e
00000010: 1ba3 debc e9de 873d e2fb debd 42ba e43d
00000020: e997 2bbe e0dd fdbd bf3a 3abe 76e9 9bbd
00000030: 6814 e4bc de7f 9e3c a7d1 84be bb45 1d3c
00000040: 8126 97be 8919 5abe b176 1bbe 59a0 d6be
00000050: 1ed9 243e f1fb 07be 87bc 31bd a53c 0abe
00000060: e2b8 10be 3977 663d c693 483e ea4e 73be
00000070: 409c 01bd 671f 5abd 2835 043f 4239 97bd
00000080: 1f68 433e a3e4 213e 8e7c 14bd 42ea 33be
00000090: 6c40 6cbe aca9 943e 970b 4a3e 256c 60be
000000a0: 878e e23b 5942 c5bc e707 163e f282 543c
000000b0: 83dc 5cbb 15d0 dc3c e57d b7bc fb81 bfbc
000000c0: 410c 78bd fb2e 6a3e c75b bebc 83cc 38be
000000d0: cafa b1bc e0ec 20be d54c dcbd f0c6 493c
000000e0: 962b a43c 3249 89bd 4d78 02bf 67f8 71bd
000000f0: 57bd 4b3e b2e5 9b3d 3b89 97bd 3e81 a83b
00000100: 50af 823b 5ace 823c d51d 1abe 6b15 f53c
00000110: c5f8 a43d 0af3 943e 0b8a 47be 074c 3c3e
00000120: 1504 d7bc 3a33 d4bd d28b d4bd f73e 843e
00000130: 5951 f8be 0653 d4bd 5c96 edbc 081d 1d3d
00000140: 236e a13d 7b71 253e 34d2 84bd ee32 0dbd
00000150: a870 093e 576a 92bd f615 bb3e 45f7 40be
00000160: 8742 3b3a 36fc 553c 59b5 c73c af98 973d
00000170: eebb 8e3e de48 26be c7f9 633c 7892 64bd
00000180: 8419 c9bd c3e7 0fbe 9993 c3bd b3df 8f3c
00000190: cff3 6bbd 88f0 7abe bb67 80bd e244 12be
000001a0: 40c5 49be ca7a 6c3d 11db 3f3e a763 a4bd
000001b0: a65a 42be acbf 43bd 2fed e2bd 6e7b 0a3e
000001c0: 72c3 b83c e1c9 a4be f9bd b7be c3ac 043e
000001d0: 4a72 9d3c a26e 11be 104e d139 125d cbbd
000001e0: ef1f a9be bc76 173d ccc5 2a3e c475 1e38
000001f0: 1f46 d4bd 80a0 6bbe 5bf0 33be 52d4 17be
00000200: 9984 19be 81cd dbbd 5b17 73bd a381 37be
00000210: 006c 903d ce44 3d3e a33c 26be 4bf1 8b3c
00000220: 4900 aa3d 7063 dfbd 2a70 56bd 8c42 f1bc
00000230: efcb d33e cde2 413e 3b00 edbd 13fa ad3d
00000240: ca20 f2bd ecbe 483e b91a 15bd c586 cc3c
00000250: ab4b d1bd 8c18 b2ba 9240 263d 8382 bebd
00000260: 15ae 1e3b cf1a 18be a759 163d 6976 563d
00000270: e0a6 153e 7290 2d3e ee05 183c 1ee1 dabd
00000280: 78e7 82bd 0acd 75bd dc41 09be f1f6 e13d
00000290: 9a1c ea3d eb8e 553e 7eed 9cbc 2ffc 383c
000002a0: f4af eb3d 50e4 49be e731 ecbd aa75 d8bd
000002b0: 190a 59bd ca33 973b 812e d1b8 795e a73d
000002c0: 10a4 5dbd 31dc cdbe a565 0a3e f224 a43d
000002d0: 7251 afbd 8522 52bd a745 c9be ec78 43bc
000002e0: 5b47 273e effc 38bd 794a 35be 736a 80bc
000002f0: 19c4 78bc 4d3e 223e ea69 78bc 06a7 dc3d
00000300: 2de2 a63d 8e69 32bd 1b16 4e3e ca7a ca3c
00000310: cee5 253d 63b0 f9bc bad7 c2bd 860c 4abe
00000320: 95ec d4bd cb5e 44be a875 1e3f 759c cdbd
00000330: 9ccc adbd 3130 5abe a4ef b3bd 463c 39be
00000340: cee4 b6bc 4e0d 3dbd 15e5 d73a 10c8 2fbd
00000350: a2c4 093e 6570 ab3c ac06 a03d 44ff 953e
00000360: f5ff 31be d98e 843d 7710 173c 9978 69be
00000370: 1414 3c3d ee96 cdbe 1d29 ba3e 47c8 383e
00000380: 6fd6 9ebe c820 cdbc df09 923e 470b 223e
00000390: 82fb fdbe 3981 18be 8218 773e f489 aabe
000003a0: c666 253d 2a38 733d f9b6 5bbe 1a93 e93d
000003b0: 279e 83bd 4375 0f3c c0a8 a9be a2c7 77be
000003c0: 65a6 19be 90c4 2cbd 1b65 13bf fe7a fb3b
000003d0: dbe3 9a3e f73b b23e e06d 0d3d 721f 513e
000003e0: 16e7 51be f1c1 ee3c d80a f63d 3500 3c3e
000003f0: ccd6 8ebe eae9 4cbe e8fb f6bd b987 63be

fc2.bias f4 [64]
-0.074909404 -0.036024716 0.14272544 -0.0082884105 -0.008037159 -0.13281924 -0.0018361108 0.10337815
0.09921366 0.36787003 -0.146687 0.13512783 0.23434797 -0.024840238 -0.08767075 -0.016911501
0.17243904 -0.061798375 -0.07542569 0.093678325 0.32064462 0.46465412 -0.17721093 -0.056316618
-0.08209235 -0.010772745 0.07354336 -0.032253303 -0.052061338 0.087133005 0.01908149 -0.008807905
0.0051745027 0.1599685 0.051955722 -0.05191758 0.060860608 -0.112194344 0.3686516 -0.06401422
-0.1333934 0.37236345 0.3577495 -0.092973754 0.03448456 -0.068920694 0.2621621 -0.13843727
0.19322772 0.02363991 -0.20173797 0.4034175 -0.083225094 -0.08850218 0.10703494 0.06323549
-0.13992602 -0.08054777 0.03780226 -0.07016935 0.07028187 0.16548853 0.12531485 -0.050363924
00000000: 1a6a 99bd a78e 13bd 9e26 123e 1dcc 07bc
00000010: 4aae 03bc c401 08be a8a9 f0ba ecb7 d33d
00000020: 8830 cb3d 7659 bc3e 1e35 16be f35e 0a3e
00000030: eaf8 6f3e c17d cbbc b98c b3bd fd89 8abc
00000040: dc93 303e 4b20 7dbd c978 9abd 6cda bf3d
00000050: 882b a43e 25e7 ed3e c876 35be 41ac 66bd
00000060: 0920 a8bd 2b80 30bc e79d 963d 0a1c 04bd
00000070: 453e 55bd ca72 b23d c950 9c3c 084f 10bc
00000080: e08e a93b c8ce 233e 86cf 543d 87a7 54bd
00000090: f948 793d 26c6 e5bd e7bf bc3e e319 83bd
000000a0: 4898 08be 6ca6 be3e f12a b73e 0669 bebd
000000b0: af3f 0d3d 4b26 8dbd 1c3a 863e 80c2 0dbe
000000c0: 7ddd 453e 7ca8 c13c 6694 4ebe bd8c ce3e
000000d0: eb71 aabd a240 b5bd 2235 db3d 9c81 813d
000000e0: c448 0fbe 3bf6 a4bd 8bd6 1a3d f3b4 8fbd
000000f0: f1ef 8f3d d375 293e 8952 003e 674a 4ebd

fc3.weight f4 [4, 64]
-0.15520489 0.40045482 0.12533012 0.33900434 0.007320822 -0.5932592 0.26587313 -0.31975275
0.2637646 0.10620609 -0.52101475 0.18204087 0.06320887 -0.14928178 -0.014817267 -0.07902649
-0.06564179 0.28223112 -0.0058288476 0.15404014 0.1661356 0.1705822 -0.09584199 0.17673749
-0.052954197 -0.097567484 0.05883193 -0.3090519 0.10173256 0.039875638 -0.29317197 0.15673193
0.42322385 0.117033675 0.044517435 0.4701105 0.33967853 0.06188352 0.16303189 0.5506885
0.27990597 0.104743 0.13436231 0.075306125 0.2690589 -0.15384007 0.16849503 0.53199506
0.10829465 0.17579262 -0.13999729 0.14722453 0.5662848 0.18960851 0.06882982 -0.11502895
-0.27982542 -0.21873778 0.3966153 -0.14671978 0.013569474 0.17595232 0.017722184 0.14285243
0.11735946 0.39131016 0.18929282 0.5528906 0.10053579 -0.2329676 0.31511047 0.025494106
0.21615909 0.11271841 0.051501315 0.1842233 0.005244635 0.40142345 -0.01365414 0.32566825
-0.0010699213 0.27969286 -0.027237315 0.19143464 0.17066893 0.21234237 -0.04950559 0.18181564
-0.034786627 -0.095399916 0.1953601 0.20203234 -0.04120246 0.061117988 -0.24468341 0.23051758
0.32586554 0.004100847 0.10704549 0.41625863 0.2709173 0.1405906 0.18287335 0.42601252
-0.13271691 0.14200695 0.049051374 0.18244147 0.2877903 -0.100508064 0.1683832 0.017506192
0.07605946 0.08478753 -0.06849276 0.057842303 -0.17759112 0.18037094 0.09208109 0.010058317
-0.21348229 -0.13518633 0.26195714 -0.18564554 -0.082672715 0.10443729 0.046463892 0.0815904
0.009026544 0.13334791 0.11522776 0.89010084 0.47597033 -0.002347026 0.31498295 -0.0872715
0.13902698 0.10918644 -0.28281975 0.4397032 0.122817986 -0.16394176 -0.058584988 0.37066096
0.085163854 0.10463295 -0.02013053 0.13108358 0.049741875 0.22876288 -0.2665058 0.2171541
0.114350565 0.11730056 -0.03347298 -0.36357385 0.44630042 0.22900541 -0.24553043 0.12305204
0.18589206 -0.039345004 0.25655964 0.3342445 0.09091245 -0.29898334 0.18524839 0.13907064
-0.19910346 0.1658452 0.18365426 0.23677076 0.14131115 -0.29249534 0.13228823 -0.047264516
0.35459262 -0.018268323 -0.32736987 0.20715013 -0.10569781 0.25610253 0.112095825 0.069118984
-0.18622719 0.09373177 0.18859509 -0.14679159 -0.2908319 0.22335866 -0.21966827 -0.33332384
-0.30217153 0.09732657 0.15819623 -0.15580587 0.5762532 -0.1309595 0.20644033 -0.031437956
0.20021872 0.16374026 -0.24022025 0.12468372 0.098505154 0.45911196 0.05926323 -0.06954933
0.19845967 0.5561998 0.30474088 0.37494642 0.11066597 0.16254711 -0.3016852 0.37927905
0.16364875 -0.3343435 0.3884146 -0.09187223 0.13060543 -0.00037559925 -0.18433668 0.101054065
0.1368996 0.17212714 0.012324282 0.6188878 0.16129245 0.15136413 0.14478739 0.5186464
-0.107360266 0.17752954 0.1542528 0.1526065 0.52773076 -0.16922846 0.09636256 0.121227026
0.08756051 0.02782035 -0.0028905924 0.14154151 -0.14957917 0.27309427 0.1362648 0.1821328
-0.10763785 -0.09444951 0.43421173 -0.0957246 -0.0975027 0.061285347 -0.23572305 0.15208937
00000000: 08ee 1ebe 6a08 cd3e 8a56 003e fa91 ad3e
00000010: 82e3 ef3b d6df 17bf 8620 883e a2b6 a3be
00000020: 270c 873e 9482 d93d 3961 05bf ec68 3a3e
00000030: a773 813d 53dd 18be 1fc4 72bc a4d8 a1bd
00000040: 346f 86bd 9980 903e ebff bebb b3bc 1d3e
00000050: 731f 2a3e 1aad 2e3e ce48 c4bd acfa 343e
00000060: 80e6 58bd 76d1 c7bd c0f9 703d 0d3c 9ebe
00000070: 2959 d03d a354 233d a31a 96be 567e 203e
00000080: ccb0 d83e 5aaf ef3d ea57 363d 53b2 f03e
00000090: 58ea ad3e 9379 7d3d d5f1 263e ecf9 0c3f
000000a0: d64f 8f3e 7f83 d63d 4696 093e 193a 9a3d
000000b0: 17c2 893e 4088 1dbe f689 2c3e d430 083f
000000c0: 96c9 dd3d fb02 343e 735b 0fbe 07c2 163e
000000d0: 0af8 103f bc28 423e a6f6 8c3d 4c94 ebbd
000000e0: 4745 8fbe ccfc 5fbe 2911 cb3e b63d 16be
000000f0: 8052 5e3c d82c 343e 1d2e 913c e847 123e
00000100: 285a f03d ce59 c83e fad5 413e 3d8a 0d3f
00000110: b5e5 cd3d 0f8f 6ebe 2956 a13e 04d9 d03c
00000120: cf58 5d3e e9d8 e63d 0bf3 523d 08a5 3c3e
00000130: 30db ab3b 6087 cd3e 9db5 5fbc fdbd a63e
00000140: 9a3c 8cba e733 8f3e ca20 dfbc 7107 443e
00000150: d6c3 2e3e 4770 593e 60c6 4abd e12d 3a3e
00000160: 6c7c 0ebd 0861 c3bd 7a0c 483e 91e1 4e3e
00000170: e9c3 28bd db56 7a3d 4a8e 7abe cd0c 6c3e
00000180: d9d7 a63e 6660 863b aa3a db3d da1f d53e
00000190: acb5 8a3e fbf6 0f3e 2743 3b3e 501e da3e
000001a0: f1e6 07be 456a 113e 18ea 483d f0d1 3a3e
000001b0: 4059 933e 2cd7 cdbd a56c 2c3e 2569 8f3c
000001c0: 10c5 9b3d 16a5 ad3d ef45 8cbd 0dec 6c3d
000001d0: 72da 35be 29b3 383e 0395 bc3d a4cb 243c
000001e0: 1a9b 5abe 496e 0abe 3f1f 863e dd19 3ebe
000001f0: 5050 a9bd 38e3 d53d ec50 3e3d de18 a73d
00000200: 12e4 133c 5b8c 083e 88fc eb3d a6dd 633f
00000210: 62b2 f33e 90d0 19bb 7245 a13e 66bb b2bd
00000220: 175d 0e3e 249d df3d c0cd 90be c720 e13e
00000230: ff87 fb3d 59e0 27be d0f6 6fbd 46c7 bd3e
00000240: 636a ae3d cd49 d63d c8e8 a4bc c63a 063e
00000250: 23be 4b3d d140 6a3e 7373 88be a55d 5e3e
00000260: a130 ea3d 473b f03d f71a 09bd 5a26 babe
00000270: 7d81 e43e 6580 6a3e 546c 7bbe b502 fc3d
00000280: 7d5a 3e3e 3a28 21bd c95b 833e 1822 ab3e
00000290: 4e30 ba3d 5814 99be c1b1 3d3e 8968 0e3e
000002a0: c7e1 4bbe 53d3 293e dd0f 3c3e 0974 723e
000002b0: dfb3 103e f3c1 95be 9176 073e 7098 41bd
000002c0: 2a8d b53e 73a7 95bc 069d a7be 2a1f 543e
000002d0: 1878 d8bd df1f 833e 7f92 e53d 418e 8d3d
000002e0: 57b2 3ebe 71f6 bf3d 121f 413e 8950 16be
000002f0: ebe7 94be 22b8 643e b8f0 60be 6ca9 aabe
00000300: 3ab6 9abe 2753 c73d 31fe 213e 938b 1fbe
00000310: 5485 133f 3f1a 06be 1865 533e 16c5 00bd
00000320: 2306 4d3e 87ab 273e 4cfc 75be 2e5a ff3d
00000330: 12bd c93d b910 eb3e 00be 723d e16f 8ebd
00000340: 0339 4b3e 1c63 0e3f ff06 9c3e faf8 bf3e
00000350: d7a4 e23d c072 263e 7c76 9abe dd30 c23e
00000360: 8a93 273e 122f abbe 47de c63e 8227 bcbd
00000370: 6ebd 053e 14ec c4b9 c1c2 3cbe 6ff5 ce3d
00000380: 692f 0c3e 1942 303e c9eb 493c 6e6f 1e3f
00000390: d929 253e 33ff 1a3e 2543 143e 03c6 043f
000003a0: b3df dbbd 4eca 353e 72f4 1d3e e144 1c3e
000003b0: 5d19 073f 3a4a 2dbe bc59 c53d e045 f83d
000003c0: ed52 b33d 81e7 e33c 1870 3dbb 42f0 103e
000003d0: 482b 19be 03d3 8b3e 0089 0b3e 0581 3a3e
000003e0: 3c71 dcbd bf6e c1bd 0051 de3e 420b c4bd
000003f0: 7faf c7bd 5806 7b3d 6261 71be 51bd 1b3e

fc3.bias f4 [4]
0.30391207 0.28787032 0.1347826 0.16040601
00000000: 5d9a 9b3e bd63 933e 7304 0a3e 7941 243e
